data.pth (torch, 11946 bytes, 6 tensors)

l1.weight f4 [8, 179]
0	0x3e6d5ac3	0.23179154
1	0x3f42b208	0.76052904
2	0x3f018748	0.5059705
3	0x3f4b2873	0.79358596
4	0xbe28a00c	-0.16467303
5	0xbf538dcc	-0.8263824
6	0xbe2b4c9e	-0.16728446
7	0xbd50fda8	-0.051023155
8	0xbbbecbce	-0.0058226353
9	0xbf3b81e2	-0.7324506
10	0x3f049e3c	0.51803946
11	0x3ebc9eb8	0.36839843
12	0x3f1a4f67	0.6027741
13	0x3e7f8da8	0.24956381
14	0x3ea254b9	0.31705263
15	0x3edc7686	0.43059176
16	0x3f0e1450	0.55499744
17	0x3e6527b0	0.22378421
18	0x3f52e520	0.82380867
19	0x3ee93036	0.45544595
20	0x3e3c01d2	0.1836007
21	0xbeb81a85	-0.35957733
22	0x3ec1d23f	0.37855718
23	0x3edc79a6	0.4306156
24	0x3e0f1c60	0.13975668
25	0x3ebdf524	0.3710109
26	0x3f01afc4	0.5065882
27	0xbe50d8b0	-0.2039516
28	0x3eaafd72	0.33396488
29	0x3f148c81	0.5802689
30	0x3e9adf3d	0.30248442
31	0xbe58cc28	-0.2117163
32	0xbe8393ea	-0.25698787
33	0xbe7f85da	-0.24953404
34	0x3f206d23	0.6266653
35	0x3da0e847	0.078568034
36	0x3c18ce75	0.009326567
37	0xbe69f870	-0.22848678
38	0x3c90b299	0.017663287
39	0xbe748a1c	-0.2388081
40	0xbe1292d4	-0.14313823
41	0xbea9fcb7	-0.3320062
42	0x3ec4eda6	0.3846256
43	0xbea8ec94	-0.32992995
44	0x3d76b0ea	0.060227312
45	0xbe6d093f	-0.23148058
46	0x3f4f1443	0.8089029
47	0x3e63348e	0.22188017
48	0xbe479188	-0.1948911
49	0x3ec9fd07	0.39450857
50	0x3ea50d65	0.32236782
51	0x3f4fc6f4	0.81162953
52	0x3eeee88e	0.466618
53	0x3f01f35e	0.50761974
54	0xbf4878af	-0.7830915
55	0x3ec26c1f	0.37973115
56	0xbf473115	-0.7780927
57	0x3f397622	0.7244588
58	0x3de8b6fa	0.11363025
59	0x3e8b2b86	0.27181643
60	0xbeea8c9b	-0.45810398
61	0xbe508ce2	-0.20366243
62	0x3ea85310	0.32875872
63	0x3f064646	0.5245098
64	0x3ec04860	0.37555218
65	0x3f14cf57	0.58128875
66	0xbebd366b	-0.3695558
67	0x3edcd296	0.43129414
68	0x3eedd178	0.46448874
69	0x3ea1808b	0.31543383
70	0xbf237918	-0.6385665
71	0x3e421ec8	0.18957055
72	0xbe1d11d0	-0.15338826
73	0x3ea7995e	0.32734197
74	0x3ec39f94	0.38207686
75	0xbe94d05e	-0.29065222
76	0x3ed133ef	0.40859935
77	0x3d9b82be	0.075932965
78	0x3eb3ae01	0.35093692
79	0x3f2fc075	0.6865304
80	0xbe56305e	-0.20916888
81	0x3ebc4372	0.36770207
82	0xbcdcba13	-0.026944196
83	0xbce0f11a	-0.027458716
84	0xbea25482	-0.317051
85	0xbe9eeba3	-0.31039152
86	0x3f2b5541	0.6692696
87	0xbe719022	-0.23590139
88	0x3eb68df9	0.35655192
89	0x3ece016e	0.40235466
90	0xbe579be3	-0.2105556
91	0x3e8c206a	0.2736848
92	0x3eea776e	0.45794243
93	0x3eaa20cb	0.33228144
94	0x3dc82634	0.09772912
95	0x3e09f085	0.13470657
96	0x3eb0fe55	0.3456904
97	0x3ed4ee5f	0.41588113
98	0xbe773611	-0.24141718
99	0xbec729de	-0.3889913
100	0x3e86952b	0.2628568
101	0x3b6dfc74	0.0036313804
102	0x3f10a119	0.56495816
103	0x3eb3d7d4	0.351256
104	0x3e8deff5	0.27722135
105	0x3eb8ea51	0.3611627
106	0x3f779fae	0.96728027
107	0x3ee87964	0.45405114
108	0x3ec2e856	0.38067883
109	0xbdff75e3	-0.12473657
110	0x3effa3d1	0.4992967
111	0x3e05ab99	0.1305374
112	0x3d813508	0.06308943
113	0x3e35a13e	0.1773729
114	0x3e7b85ff	0.24562834
115	0xbf22a1e8	-0.635283
116	0x3d838689	0.06422145
117	0x3eb8bc3e	0.36081117
118	0x3e365a74	0.17807943
119	0xbed2568c	-0.41081655
120	0xbf18491d	-0.5948656
121	0x3eef0004	0.466797
122	0xbd80fedb	-0.0629861
123	0x3edf1292	0.43568856
124	0x3ebbe8b3	0.36700973
125	0x3edae931	0.42756036
126	0x3f00e299	0.5034576
127	0xbe911580	-0.28336716
128	0x3eefaf6a	0.46813518
129	0xbe2ea081	-0.17053415
130	0x3f51b6fd	0.8191984
131	0x3ef377b1	0.47552255
132	0x3f0cea11	0.55044657
133	0xbe776ce0	-0.24162626
134	0xbee2c05d	-0.44287387
135	0x3f006fe5	0.5017074
136	0xbea3135f	-0.31850716
137	0x3e9cd769	0.30633095
138	0x3ca608de	0.0202679
139	0x3e5bc2d8	0.21461046
140	0x3eee4fe5	0.4654533
141	0x3ea74013	0.32666072
142	0x3f7cd4da	0.98762286
143	0x3edc1924	0.4298793
144	0xbe81c921	-0.25348762
145	0xbe40aaaa	-0.18815103
146	0x3f28261e	0.6568316
147	0x3ddb0c07	0.106956534
148	0x3ec2e502	0.38065344
149	0xbf162000	-0.5864258
150	0xbf1adcb3	-0.6049301
151	0xb9822cd6	-0.00024828938
152	0x3e7b6bfe	0.24552915
153	0x3f17e3f2	0.5933219
154	0xbe699889	-0.22812094
155	0x3f4b18d5	0.79334766
156	0xbdde136c	-0.10843548
157	0x3f578732	0.84190667
158	0x3e89f69b	0.26945958
159	0x3f081c31	0.53168017
160	0xbede5a2b	-0.43428168
161	0xbe4928bb	-0.19644444
162	0x3ca9bf44	0.020721085
163	0xbe17f659	-0.14840068
164	0x3ea0e4f3	0.31424674
165	0x3eccb88b	0.39984545
166	0xbeaca124	-0.3371669
167	0xbef94165	-0.48682705
168	0x3f1e9fda	0.61962664
169	0xbf41e835	-0.75744945
170	0x3f202e82	0.62570965
171	0x3f2e3472	0.68048775
172	0x3d98ca02	0.07460405
173	0x3f039a3c	0.5140722
174	0x3eb59e07	0.35472128
175	0x3e85cb5d	0.26131716
176	0xbe19c13c	-0.1501512
177	0x3dab064f	0.08350813
178	0xbe3296a2	-0.17440274
179	0xbd379f63	-0.044829737
180	0xbf1cb6af	-0.61216253
181	0x3ef084fa	0.46976453
182	0x3ebcdec5	0.3688871
183	0x3e06d4ed	0.13167162
184	0xbefb2388	-0.49050546
185	0xbd97cda9	-0.074122734
186	0x3e025d18	0.12730825
187	0xbe90208f	-0.2814984
188	0xbf53d9b0	-0.8275404
189	0x3e32087e	0.17386052
190	0x3efba265	0.49147335
191	0x3eaefea7	0.3417866
192	0xbed74804	-0.4204713
193	0xbdae5697	-0.085126095
194	0x3f1cc56b	0.61238736
195	0x3ef8fe8e	0.4863171
196	0xbee64038	-0.4497087
197	0x3ef72088	0.48267007
198	0xbed6e2cb	-0.41969904
199	0xbe6f27f6	-0.23355088
200	0x3eefed7c	0.46860874
201	0xbeba7fbe	-0.36425585
202	0xbede69e3	-0.4344016
203	0xbdbd4e2b	-0.09243425
204	0x3f0dfd49	0.5546461
205	0xbecf7e5f	-0.405261
206	0x3f041fbe	0.51610935
207	0x3ecb47f0	0.3970332
208	0xbf48c2db	-0.78422326
209	0x3f0777e1	0.52917296
210	0x3d02843d	0.031864394
211	0x3f091d09	0.5355993
212	0xbe4029c7	-0.18765937
213	0xbf550e15	-0.8322461
214	0xbe1f2083	-0.15539746
215	0xbe9a85ba	-0.3018015
216	0xbdc02d74	-0.093836695
217	0x3f095945	0.5365184
218	0x3d95b292	0.0730945
219	0x3c32f904	0.010923628
220	0x3f19aab7	0.60026115
221	0xbed2d241	-0.41176036
222	0x3e06f70c	0.13180178
223	0xbeb9aa1a	-0.3626259
224	0x3ea0e6b2	0.31426007
225	0x3ea5f9f4	0.32417262
226	0xbd72c4a4	-0.059269562
227	0x3d08b823	0.03337873
228	0xbed60dbe	-0.4180736
229	0xbe140049	-0.14453234
230	0x3f02c0b4	0.5107529
231	0x3f1d8fe4	0.61547685
232	0xbe32ae9b	-0.17449419
233	0xbf333e36	-0.700168
234	0x3ecc7a0f	0.39936873
235	0xbf4b03b7	-0.79302543
236	0xbf08c29e	-0.5342196
237	0xbe99b85e	-0.30023474
238	0xbea82bbe	-0.32845873
239	0x3e91a184	0.2844354
240	0x3e920458	0.2851894
241	0x3eb9839c	0.36233222
242	0xbf030192	-0.5117427
243	0x3f12e0f1	0.57374483
244	0x3ea7cbf9	0.32772806
245	0xbea00636	-0.3125474
246	0x3f295274	0.6614144
247	0xbebcd49b	-0.36880955
248	0x3f137a29	0.57608277
249	0xbf275b52	-0.6537372
250	0xbd4a1717	-0.049338426
251	0x3e8a4926	0.27008933
252	0xbd515d78	-0.05111453
253	0x3eed3644	0.46330464
254	0x3e322690	0.17397523
255	0xbea3b6ac	-0.31975305

l1.bias f4 [8]
0	0x3f4ff90b	0.81239384
1	0x3f5ea146	0.86964834
2	0x3f7a4256	0.9775747
3	0x3f5817c8	0.8441129
4	0x3f545414	0.82940793
5	0x3f700a40	0.9376564
6	0x3f873988	1.0564432
7	0x3f8a3187	1.0796365

l2.weight f4 [8, 8]
0	0x3fca9381	1.5826265
1	0xbec01c86	-0.37521762
2	0x3f6f583b	0.93494004
3	0xbf241682	-0.64096844
4	0xbfba9ca3	-1.4579052
5	0x3f225247	0.63406795
6	0x4000ae5e	2.0106425
7	0x4000c3f8	2.011961
8	0x3ffbb166	1.9663513
9	0x3f1816d4	0.5940983
10	0xbf6dd7d7	-0.9290747
11	0x3fe5429c	1.7910953
12	0x400299c7	2.0406358
13	0xbea4bdc6	-0.32176036
14	0x3df9fae1	0.122060545
15	0xbf6b28af	-0.91858953
16	0xbe736b28	-0.23771346
17	0xbde7a92e	-0.11311565
18	0xbea722db	-0.3264378
19	0x3e26d95a	0.1629385
20	0xbd9de1ac	-0.07709059
21	0xbe751828	-0.23934996
22	0x3d8f0218	0.06982821
23	0xbd8ee764	-0.06977728
24	0xbfe17848	-1.7614832
25	0x3e9b97aa	0.30389148
26	0x3fd3aaa7	1.6536454
27	0xbeb9a306	-0.3625719
28	0x3e808c19	0.25106886
29	0x4012ec05	2.2956555
30	0xbee2bbee	-0.44284004
31	0x3ffcf9dd	1.9763752
32	0xbfa73b1e	-1.3064916
33	0x3f261e23	0.64889735
34	0x3ff86739	1.9406501
35	0x3f2144f0	0.62995815
36	0x3fa401fa	1.2813103
37	0x3fab8580	1.3400116
38	0xbf937fd1	-1.1523381
39	0x3e1059a9	0.14096703
40	0x3f38c066	0.72168577
41	0x400fa0ef	2.2441976
42	0x3ede0edf	0.4337072
43	0xbf4c4e96	-0.7980741
44	0x3f46cffd	0.77661115
45	0x3e0858a7	0.13315068
46	0xbec21f20	-0.37914371
47	0xbf96f998	-1.179492
48	0xbf5d6a03	-0.86489886
49	0xbe3a6b1c	-0.18204921
50	0x3f9b6d97	1.2142819
51	0x3fcd9a24	1.6062665
52	0x3f74fb36	0.9569582
53	0xbfbfe8e5	-1.4992949
54	0x3fe2876b	1.7697576
55	0x3d9253ef	0.07144915
56	0x3f3e8a90	0.7443018
57	0x3f75d90c	0.9603431
58	0x3f9b6d0f	1.2142657
59	0x3fec774b	1.8473905
60	0xbf93c88f	-1.1545581
61	0x3fe91ecc	1.8212523
62	0xbf4561bc	-0.77102256
63	0xbf97acfd	-1.1849667

l2.bias f4 [8]
0	0x3f2492f5	0.6428674
1	0x3ef738e2	0.48285586
2	0xbe1ac3a2	-0.1511369
3	0x3f241b89	0.64104515
4	0x3e97a4ae	0.29617828
5	0x3f249e86	0.6430439
6	0x3d68d365	0.056842227
7	0x3e2c82a1	0.16846706

l3.weight f4 [18, 8]
0	0x3e087df8	0.13329303
1	0xbcd1fd0d	-0.02563336
2	0x3e7770be	0.24164101
3	0xbfb70cbf	-1.4300765
4	0xbfcc2b68	-1.5950747
5	0x3ee09862	0.4386626
6	0xbf1bcc08	-0.608582
7	0x3f34d8b3	0.70643157
8	0x3f4fe46a	0.8120791
9	0xbf8a0ed2	-1.0785773
10	0x3e432fbe	0.19061181
11	0x3f6f4618	0.9346633
12	0xbfb62d18	-1.4232512
13	0xbeab4dc7	-0.33457777
14	0xbfd6f7a5	-1.6794325
15	0xbfe1f0a1	-1.7651559
16	0x3e6d71e9	0.23187985
17	0xbf0ebea3	-0.5575964
18	0xbdb6b920	-0.089220285
19	0xbed1c3ad	-0.409696
20	0xbed75aff	-0.42061612
21	0xbfb4529b	-1.4087709
22	0x3ea19f1c	0.31566703
23	0x3f12358c	0.57112956
24	0xbfca2d92	-1.5795157
25	0x3e5be6f5	0.21474822
26	0x3ddf9f80	0.10919094
27	0x3f4f8e52	0.8107654
28	0x3f5b12cd	0.8557556
29	0x3e6390e0	0.22223234
30	0xbf6d26e4	-0.9263747
31	0xbfe10cf9	-1.7582084
32	0x3f850472	1.0391982
33	0x3e5f91eb	0.21833007
34	0x3d99e380	0.07514095
35	0xbfaf55d5	-1.3698069
36	0xbee37548	-0.44425416
37	0xbf8f3c41	-1.1190263
38	0xbfa3c10d	-1.279329
39	0xbf5ed192	-0.8703853
40	0x3e7e2763	0.24819712
41	0xbff42f25	-1.9076887
42	0xbcc88d30	-0.024481386
43	0x3eec2288	0.46120095
44	0x3e6cb09e	0.23114249
45	0xbfafa9d2	-1.37237
46	0xbfe494e2	-1.7857935
47	0x3ec0233f	0.3752689
48	0x3ea7a694	0.32744277
49	0x3d1d3157	0.038377132
50	0xbe7ecc5c	-0.24882644
51	0xbf26a542	-0.65095913
52	0xbf8c3ef6	-1.0956714
53	0x3f67b8f4	0.9051659
54	0xba77b9ca	-0.0009449987
55	0xbfdd5748	-1.7292261
56	0xbfa4746a	-1.2848027
57	0x3e94f9ba	0.29096776
58	0xbe963d92	-0.2934385
59	0x3e84455b	0.25834164
60	0x3edef7fc	0.43548572
61	0xbfb6c2fa	-1.4278252
62	0x3f68a279	0.90872914
63	0xbf76544e	-0.9622239
64	0xbf87f738	-1.062232
65	0x3f4a4c70	0.79022884
66	0xbd8cbb7c	-0.06871697
67	0xbf7a31b3	-0.97732085
68	0xbe1d79d2	-0.15378502
69	0x3f97f52c	1.1871696
70	0xbf9fa96c	-1.2473578
71	0xbf5a9ea4	-0.85398316
72	0xbf406261	-0.75150114
73	0xbf0cf155	-0.55055743
74	0x3e8352a7	0.25648996
75	0x3f1186e0	0.5684643
76	0x3f04609d	0.5170992
77	0xbebb8555	-0.36625162
78	0xbdea6b54	-0.114462525
79	0xbdd3b2af	-0.103368156
80	0x3f315122	0.69264424
81	0xbfc91f21	-1.5712625
82	0x3d8dacb8	0.06917709
83	0xbe4f7ea5	-0.20263155
84	0xbfd4d155	-1.6626383
85	0xbeab90c1	-0.33508876
86	0x3f5baebf	0.85813516
87	0xbfbfb64e	-1.497751
88	0xbf7c1a58	-0.984777
89	0xc004bdde	-2.0740886
90	0x3eafb96d	0.34321156
91	0x3f1ca736	0.61192644
92	0x3eab679c	0.33477485
93	0x3f3e6fcc	0.7438934
94	0xbfffc152	-1.9980872
95	0x3f01f682	0.50766766
96	0xc02aaa6b	-2.6666515
97	0xbebc4741	-0.36773112
98	0x3df1ebe8	0.11812574
99	0x3ed7978c	0.4210781
100	0x3ef9eb52	0.48812348
101	0x3c0783c8	0.008271165
102	0xbdab4b2b	-0.083639465
103	0x3f12a165	0.5727752
104	0xbfed7520	-1.8551369
105	0x3f21033c	0.6289556
106	0x3d0f1fc0	0.03494239
107	0xbf0bdca2	-0.54633534
108	0x3da360fc	0.07977483
109	0x3e979068	0.2960236
110	0xc0066d7a	-2.100432
111	0x3f63a856	0.88928735
112	0xbe129591	-0.14314868
113	0x3f68b3be	0.90899265
114	0xbe9f516c	-0.31116807
115	0xbfabe87b	-1.3430322
116	0xbf5665d4	-0.8374913
117	0xbfb1b960	-1.3884697
118	0x3f355158	0.70827246
119	0xbf2469a8	-0.6422372
120	0xbc33038d	-0.01092614
121	0xbfd180e6	-1.6367462
122	0xbe2db2ad	-0.1696269
123	0x3f507199	0.81423336
124	0x3ebe6467	0.37185976
125	0xbf84eaea	-1.038419
126	0x3e8d375f	0.27581307
127	0xbfeea166	-1.8643005
128	0xbda83e12	-0.08214964
129	0xbd2f31c1	-0.04277206
130	0xbe6f3b36	-0.23362431
131	0xbdcfc8d7	-0.10145729
132	0x3d57b237	0.052660193
133	0x3e12efe9	0.14349331
134	0xbfecec3f	-1.8509597
135	0x3f005599	0.5013061
136	0xbf8ac8d6	-1.084254
137	0x3eea86f1	0.45806077
138	0xbe00a5a7	-0.12563191
139	0xbf565e80	-0.83737946
140	0x3dfec4c8	0.12439877
141	0x3e044ccd	0.12919922
142	0x3f01463d	0.504978
143	0x3e56baae	0.2096965

l3.bias f4 [18]
0	0xbe50ab37	-0.20377813
1	0x3e4a4cc3	0.19755845
2	0xbe0e6eb9	-0.13909425
3	0x3f00a6c4	0.50254464
4	0x3ec21174	0.3790394
5	0xbebdcfbe	-0.37072557
6	0xbdd0702e	-0.101776466
7	0xbe76cbf9	-0.24101247
8	0xbd96f221	-0.07370401
9	0xbf1ca886	-0.61194646
10	0xbe899f3e	-0.26879305
11	0xbdbbfc40	-0.09178972
12	0xbd112dba	-0.035444
13	0xbeb52d88	-0.353863
14	0x3dace0a6	0.08441286
15	0xbdc1465f	-0.0943725
16	0xbec7977e	-0.38982767
17	0xbef87fa7	-0.4853489
